…
buffer=False, task=classify, time=None, tracker=botsort.yaml, translate=0.1, val=True, verbose=True, vid_stride=1, visualize=False, warmup_bias_lr=0.1, warmup_epochs=3.0, warmup_momentum=0.8, weight_decay=0.0005, workers=2, workspace=None
train: N:\ROV\data\train... found 34037 images in 6 classes  
val: N:\ROV\data\val... found 4505 images in 6 classes  
test: N:\ROV\data\test... found 12678 images in 6 classes  
Overriding model.yaml nc=80 with nc=6

                   from  n    params  module                                       arguments
  0                  -1  1       464  ultralytics.nn.modules.conv.Conv             [3, 16, 3, 2]
  1                  -1  1      4672  ultralytics.nn.modules.conv.Conv             [16, 32, 3, 2]
  2                  -1  1      6640  ultralytics.nn.modules.block.C3k2            [32, 64, 1, False, 0.25]
  3                  -1  1     36992  ultralytics.nn.modules.conv.Conv             [64, 64, 3, 2]
  4                  -1  1     26080  ultralytics.nn.modules.block.C3k2            [64, 128, 1, False, 0.25]     
  5                  -1  1    147712  ultralytics.nn.modules.conv.Conv             [128, 128, 3, 2]
  6                  -1  1     87040  ultralytics.nn.modules.block.C3k2            [128, 128, 1, True]
  7                  -1  1    295424  ultralytics.nn.modules.conv.Conv             [128, 256, 3, 2]
  8                  -1  1    346112  ultralytics.nn.modules.block.C3k2            [256, 256, 1, True]
  9                  -1  1    249728  ultralytics.nn.modules.block.C2PSA           [256, 256, 1]
 10                  -1  1    337926  ultralytics.nn.modules.head.Classify         [256, 6]
YOLO11n-cls summary: 86 layers, 1,538,790 parameters, 1,538,790 gradients, 3.3 GFLOPs
Transferred 234/236 items from pretrained weights
AMP: running Automatic Mixed Precision (AMP) checks...
Downloading https://github.com/ultralytics/assets/releases/download/v8.3.0/yolo11n.pt to 'yolo11n.pt': 15% ━╸────────── 832.0KB/5.4MB 287.4KB/s 0.8s<16.2Downloading https://github.com/ultralytics/assets/releases/download/v8.3.0/yolo11n.pt to 'yolo11n.pt': 100% ━━━━━━━━━━━━ 5.4MB 2.5MB/s 2.2s
…
